…
', user_size=7047, item_size=97, node_size=7144, dst_min_idx=7048, src_min_idx=1)
2025-05-22 20:55:58,190 - root - INFO - ['train_link_prediction.py', '--dataset_name', 'mooc', '--model_name', 'CRAFT', '--batch_size', '200', '--gpu', '0', '--num_neighbors', '30', '--embedding_size', '64', '--loss', 'BPR', '--hidden_dropout', '0.1', '--attn_dropout_prob', '0.1', '--emb_dropout_prob', '0.1', '--use_pos', '--output_cat_repeat_times', '--output_cat_time_intervals', '--num_output_layer', '2', '--collision_check', '--shuffle']
2025-05-22 20:55:58,222 - root - INFO - model -> CRAFT(
  (node_embedding): Embedding(98, 64, padding_idx=0)
  (position_embedding): Embedding(30, 64)
  (cross_attention): CrossAttention(
    (layer): ModuleList(
      (0-1): 2 x CrossAttentionLayer(
        (multi_head_attention): MultiHeadCrossAttentionbyHand(
          (query): Linear(in_features=64, out_features=64, bias=True)
          (key): Linear(in_features=64, out_features=64, bias=True)
          (value): Linear(in_features=64, out_features=64, bias=True)
          (softmax): Softmax(dim=-1)
          (attn_dropout): Dropout(p=0.1, inplace=False)
          (dense): Linear(in_features=64, out_features=64, bias=True)
          (LayerNorm): LayerNorm((64,), eps=1e-12, elementwise_affine=True)
          (out_dropout): Dropout(p=0.1, inplace=False)
        )
        (feed_forward): FeedForward4CrossAttn(
          (dense_1): Linear(in_features=64, out_features=256, bias=True)
          (LayerNorm): LayerNorm((64,), eps=1e-12, elementwise_affine=True)
          (dense_2): Linear(in_features=256, out_features=64, bias=True)
          (dropout): Dropout(p=0.1, inplace=False)
        )
      )
    )
  )
  (time_projection): MLP(
    (lins): ModuleList(
      (0): Linear(in_features=1, out_features=64, bias=True)
    )
  )
  (repeat_times_projection): MLP(
    (lins): ModuleList(
      (0): Linear(in_features=1, out_features=64, bias=True)
    )
  )
  (output_layer): MLP(
    (lins): ModuleList(
      (0): Linear(in_features=192, out_features=192, bias=True)
      (1): Linear(in_features=192, out_features=1, bias=True)
    )
    (dropout): Dropout(p=0.1, inplace=False)
    (act): PReLU(num_parameters=1)
  )
  (LayerNorm): LayerNorm((64,), eps=1e-12, elementwise_affine=True)
  (LayerNorm_time_intervals): LayerNorm((64,), eps=1e-12, elementwise_affine=True)
  (LayerNorm_repeat_times): LayerNorm((64,), eps=1e-12, elementwise_affine=True)
  (dropout): Dropout(p=0.1, inplace=False)
  (emb_dropout): Dropout(p=0.1, inplace=False)
  (loss_fct): BPRLoss()
)
2025-05-22 20:55:58,223 - root - INFO - model name: CRAFT, #parameters: 584200 B, 570.5078125 KB, 0.5571365356445312 MB.
2025-05-22 20:57:10,843 - root - INFO - Epoch: 1, learning rate: 0.0001, train loss: 0.16916672
2025-05-22 20:57:10,878 - root - INFO - train average_precision, 0.88756560
…
